…
      (9): BatchNorm2d(16, eps=1e-05, momentum=0.1, affine=True, track_running_stats=True)
      (10): FakeQuantAct()
    )
  )
  (out_conv): QATConv2d(16, 2, kernel_size=(1, 1), stride=(1, 1))
)
============================================================================================================================================
Layer (type (var_name))                  Input Shape          Output Shape         Param #              Param %              Trainable
============================================================================================================================================
UNet2D (UNet2D)                          [1, 4, 128, 128]     [1, 2, 128, 128]     --                        --              True
├─InvertedResidual (enc1)                [1, 4, 128, 128]     [1, 16, 128, 128]    --                        --              True
│    └─Sequential (block)                [1, 4, 128, 128]     [1, 16, 128, 128]    --                        --              True
│    │    └─QATConv2d (0)                [1, 4, 128, 128]     [1, 24, 128, 128]    96                     0.01%              True
│    │    └─BatchNorm2d (1)              [1, 24, 128, 128]    [1, 24, 128, 128]    48                     0.00%              True
│    │    └─ReLU6 (2)                    [1, 24, 128, 128]    [1, 24, 128, 128]    --                        --              --
│    │    └─FakeQuantAct (3)             [1, 24, 128, 128]    [1, 24, 128, 128]    --                        --              --
│    │    └─QATConv2d (4)                [1, 24, 128, 128]    [1, 24, 128, 128]    216                    0.02%              True
│    │    └─BatchNorm2d (5)              [1, 24, 128, 128]    [1, 24, 128, 128]    48                     0.00%              True
│    │    └─ReLU6 (6)                    [1, 24, 128, 128]    [1, 24, 128, 128]    --                        --              --
│    │    └─FakeQuantAct (7)             [1, 24, 128, 128]    [1, 24, 128, 128]    --                        --              --
│    │    └─QATConv2d (8)                [1, 24, 128, 128]    [1, 16, 128, 128]    384                    0.03%              True
│    │    └─BatchNorm2d (9)              [1, 16, 128, 128]    [1, 16, 128, 128]    32                     0.00%              True
│    │    └─FakeQuantAct (10)            [1, 16, 128, 128]    [1, 16, 128, 128]    --                        --              --
├─MaxPool2d (pool)                       [1, 16, 128, 128]    [1, 16, 64, 64]      --                        --              --
├─InvertedResidual (enc2)                [1, 16, 64, 64]      [1, 32, 64, 64]      --                        --              True
│    └─Sequential (block)                [1, 16, 64, 64]      [1, 32, 64, 64]      --                        --              True
│    │    └─QATConv2d (0)                [1, 16, 64, 64]      [1, 96, 64, 64]      1,536                  0.11%              True
│    │    └─BatchNorm2d (1)              [1, 96, 64, 64]      [1, 96, 64, 64]      192                    0.01%              True
│    │    └─ReLU6 (2)                    [1, 96, 64, 64]      [1, 96, 64, 64]      --                        --              --
│    │    └─FakeQuantAct (3)             [1, 96, 64, 64]      [1, 96, 64, 64]      --                        --              --
│    │    └─QATConv2d (4)                [1, 96, 64, 64]      [1, 96, 64, 64]      864                    0.06%              True
│    │    └─BatchNorm2d (5)              [1, 96, 64, 64]      [1, 96, 64, 64]      192                    0.01%              True
│    │    └─ReLU6 (6)                    [1, 96, 64, 64]      [1, 96, 64, 64]      --                        --              --
│    │    └─FakeQuantAct (7)             [1, 96, 64, 64]      [1, 96, 64, 64]      --                        --              --
│    │    └─QATConv2d (8)                [1, 96, 64, 64]      [1, 32, 64, 64]      3,072                  0.22%              True
│    │    └─BatchNorm2d (9)              [1, 32, 64, 64]      [1, 32, 64, 64]      64                     0.00%              True
│    │    └─FakeQuantAct (10)            [1, 32, 64, 64]      [1, 32, 64, 64]      --                        --              --
├─MaxPool2d (pool)                       [1, 32, 64, 64]      [1, 32, 32, 32]      --                   (recursive)          --
├─InvertedResidual (enc3)                [1, 32, 32, 32]      [1, 64, 32, 32]      --                        --              True
│    └─Sequential (block)                [1, 32, 32, 32]      [1, 64, 32, 32]      --                        --              True
│    │    └─QATConv2d (0)                [1, 32, 32, 32]      [1, 192, 32, 32]     6,144                  0.44%              True
│    │    └─BatchNorm2d (1)              [1, 192, 32, 32]     [1, 192, 32, 32]     384                    0.03%              True
│    │    └─ReLU6 (2)                    [1, 192, 32, 32]     [1, 192, 32, 32]     --                        --              --
│    │    └─FakeQuantAct (3)             [1, 192, 32, 32]     [1, 192, 32, 32]     --                        --              --
│    │    └─QATConv2d (4)                [1, 192, 32, 32]     [1, 192, 32, 32]     1,728                  0.12%              True
│    │    └─BatchNorm2d (5)              [1, 192, 32, 32]     [1, 192, 32, 32]     384                    0.03%              True
│    │    └─ReLU6 (6)                    [1, 192, 32, 32]     [1, 192, 32, 32]     --                        --              --
│    │    └─FakeQuantAct (7)             [1, 192, 32, 32]     [1, 192, 32, 32]     --                        --              --
│    │    └─QATConv2d (8)                [1, 192, 32, 32]     [1, 64, 32, 32]      12,288                 0.87%              True
│    │    └─BatchNorm2d (9)              [1, 64, 32, 32]      [1, 64, 32, 32]      128                    0.01%              True
│    │    └─FakeQuantAct (10)            [1, 64, 32, 32]      [1, 64, 32, 32]      --                        --              --
├─MaxPool2d (pool)                       [1, 64, 32, 32]      [1, 64, 16, 16]      --                   (recursive)          --
├─InvertedResidual (enc4)                [1, 64, 16, 16]      [1, 128, 16, 16]     --                        --              True
│    └─Sequential (block)                [1, 64, 16, 16]      [1, 128, 16, 16]     --                        --              True
│    │    └─QATConv2d (0)                [1, 64, 16, 16]      [1, 384, 16, 16]     24,576                 1.75%              True
│    │    └─BatchNorm2d (1)              [1, 384, 16, 16]     [1, 384, 16, 16]     768                    0.05%              True
│    │    └─ReLU6 (2)                    [1, 384, 16, 16]     [1, 384, 16, 16]     --                        --              --
│    │    └─FakeQuantAct (3)             [1, 384, 16, 16]     [1, 384, 16, 16]     --                        --              --
│    │    └─QATConv2d (4)                [1, 384, 16, 16]     [1, 384, 16, 16]     3,456                  0.25%              True
│    │    └─BatchNorm2d (5)              [1, 384, 16, 16]     [1, 384, 16, 16]     768                    0.05%              True
│    │    └─ReLU6 (6)                    [1, 384, 16, 16]     [1, 384, 16, 16]     --                        --              --
│    │    └─FakeQuantAct (7)             [1, 384, 16, 16]     [1, 384, 16, 16]     --                        --              --
│    │    └─QATConv2d (8)                [1, 384, 16, 16]     [1, 128, 16, 16]     49,152                 3.49%              True
│    │    └─BatchNorm2d (9)              [1, 128, 16, 16]     [1, 128, 16, 16]     256                    0.02%              True
│    │    └─FakeQuantAct (10)            [1, 128, 16, 16]     [1, 128, 16, 16]     --                        --              --
├─MaxPool2d (pool)                       [1, 128, 16, 16]     [1, 128, 8, 8]       --                   (recursive)          --
├─InvertedResidual (bottleneck)          [1, 128, 8, 8]       [1, 256, 8, 8]       --                        --              True
│    └─Sequential (block)                [1, 128, 8, 8]       [1, 256, 8, 8]       --                        --              True
│    │    └─QATConv2d (0)                [1, 128, 8, 8]       [1, 768, 8, 8]       98,304                 6.98%              True
│    │    └─BatchNorm2d (1)              [1, 768, 8, 8]       [1, 768, 8, 8]       1,536                  0.11%              True
│    │    └─ReLU6 (2)                    [1, 768, 8, 8]       [1, 768, 8, 8]       --                        --              --
│    │    └─FakeQuantAct (3)             [1, 768, 8, 8]       [1, 768, 8, 8]       --                        --              --
│    │    └─QATConv2d (4)                [1, 768, 8, 8]       [1, 768, 8, 8]       6,912                  0.49%              True
│    │    └─BatchNorm2d (5)              [1, 768, 8, 8]       [1, 768, 8, 8]       1,536                  0.11%              True
│    │    └─ReLU6 (6)                    [1, 768, 8, 8]       [1, 768, 8, 8]       --                        --              --
│    │    └─FakeQuantAct (7)             [1, 768, 8, 8]       [1, 768, 8, 8]       --                        --              --
│    │    └─QATConv2d (8)                [1, 768, 8, 8]       [1, 256, 8, 8]       196,608               13.97%              True
│    │    └─BatchNorm2d (9)              [1, 256, 8, 8]       [1, 256, 8, 8]       512                    0.04%              True
│    │    └─FakeQuantAct (10)            [1, 256, 8, 8]       [1, 256, 8, 8]       --                        --              --
├─QATConvTranspose2d (upconv4)           [1, 256, 8, 8]       [1, 128, 16, 16]     131,200                9.32%              True
├─InvertedResidual (dec4)                [1, 256, 16, 16]     [1, 128, 16, 16]     --                        --              True
│    └─Sequential (block)                [1, 256, 16, 16]     [1, 128, 16, 16]     --                        --              True
│    │    └─QATConv2d (0)                [1, 256, 16, 16]     [1, 1536, 16, 16]    393,216               27.93%              True
│    │    └─BatchNorm2d (1)              [1, 1536, 16, 16]    [1, 1536, 16, 16]    3,072                  0.22%              True
│    │    └─ReLU6 (2)                    [1, 1536, 16, 16]    [1, 1536, 16, 16]    --                        --              --
│    │    └─FakeQuantAct (3)             [1, 1536, 16, 16]    [1, 1536, 16, 16]    --                        --              --
│    │    └─QATConv2d (4)                [1, 1536, 16, 16]    [1, 1536, 16, 16]    13,824                 0.98%              True
│    │    └─BatchNorm2d (5)              [1, 1536, 16, 16]    [1, 1536, 16, 16]    3,072                  0.22%              True
│    │    └─ReLU6 (6)                    [1, 1536, 16, 16]    [1, 1536, 16, 16]    --                        --              --
│    │    └─FakeQuantAct (7)             [1, 1536, 16, 16]    [1, 1536, 16, 16]    --                        --              --
│    │    └─QATConv2d (8)                [1, 1536, 16, 16]    [1, 128, 16, 16]     196,608               13.97%              True
│    │    └─BatchNorm2d (9)              [1, 128, 16, 16]     [1, 128, 16, 16]     256                    0.02%              True
│    │    └─FakeQuantAct (10)            [1, 128, 16, 16]     [1, 128, 16, 16]     --                        --              --
├─QATConvTranspose2d (upconv3)           [1, 128, 16, 16]     [1, 64, 32, 32]      32,832                 2.33%              True
├─InvertedResidual (dec3)                [1, 128, 32, 32]     [1, 64, 32, 32]      --                        --              True
│    └─Sequential (block)                [1, 128, 32, 32]     [1, 64, 32, 32]      --                        --              True
│    │    └─QATConv2d (0)                [1, 128, 32, 32]     [1, 768, 32, 32]     98,304                 6.98%              True
│    │    └─BatchNorm2d (1)              [1, 768, 32, 32]     [1, 768, 32, 32]     1,536                  0.11%              True
│    │    └─ReLU6 (2)                    [1, 768, 32, 32]     [1, 768, 32, 32]     --                        --              --
│    │    └─FakeQuantAct (3)             [1, 768, 32, 32]     [1, 768, 32, 32]     --                        --              --
│    │    └─QATConv2d (4)                [1, 768, 32, 32]     [1, 768, 32, 32]     6,912                  0.49%              True
│    │    └─BatchNorm2d (5)              [1, 768, 32, 32]     [1, 768, 32, 32]     1,536                  0.11%              True
│    │    └─ReLU6 (6)                    [1, 768, 32, 32]     [1, 768, 32, 32]     --                        --              --
│    │    └─FakeQuantAct (7)             [1, 768, 32, 32]     [1, 768, 32, 32]     --                        --              --
│    │    └─QATConv2d (8)                [1, 768, 32, 32]     [1, 64, 32, 32]      49,152                 3.49%              True
│    │    └─BatchNorm2d (9)              [1, 64, 32, 32]      [1, 64, 32, 32]      128                    0.01%              True
│    │    └─FakeQuantAct (10)            [1, 64, 32, 32]      [1, 64, 32, 32]      --                        --              --
├─QATConvTranspose2d (upconv2)           [1, 64, 32, 32]      [1, 32, 64, 64]      8,224                  0.58%              True
├─InvertedResidual (dec2)                [1, 64, 64, 64]      [1, 32, 64, 64]      --                        --              True
│    └─Sequential (block)                [1, 64, 64, 64]      [1, 32, 64, 64]      --                        --              True
│    │    └─QATConv2d (0)                [1, 64, 64, 64]      [1, 384, 64, 64]     24,576                 1.75%              True
│    │    └─BatchNorm2d (1)              [1, 384, 64, 64]     [1, 384, 64, 64]     768                    0.05%              True
│    │    └─ReLU6 (2)                    [1, 384, 64, 64]     [1, 384, 64, 64]     --                        --              --
│    │    └─FakeQuantAct (3)             [1, 384, 64, 64]     [1, 384, 64, 64]     --                        --              --
│    │    └─QATConv2d (4)                [1, 384, 64, 64]     [1, 384, 64, 64]     3,456                  0.25%              True
│    │    └─BatchNorm2d (5)              [1, 384, 64, 64]     [1, 384, 64, 64]     768                    0.05%              True
│    │    └─ReLU6 (6)                    [1, 384, 64, 64]     [1, 384, 64, 64]     --                        --              --
│    │    └─FakeQuantAct (7)             [1, 384, 64, 64]     [1, 384, 64, 64]     --                        --              --
│    │    └─QATConv2d (8)                [1, 384, 64, 64]     [1, 32, 64, 64]      12,288                 0.87%              True
│    │    └─BatchNorm2d (9)              [1, 32, 64, 64]      [1, 32, 64, 64]      64                     0.00%              True
│    │    └─FakeQuantAct (10)            [1, 32, 64, 64]      [1, 32, 64, 64]      --                        --              --
├─QATConvTranspose2d (upconv1)           [1, 32, 64, 64]      [1, 16, 128, 128]    2,064                  0.15%              True
├─InvertedResidual (dec1)                [1, 32, 128, 128]    [1, 16, 128, 128]    --                        --              True
│    └─Sequential (block)                [1, 32, 128, 128]    [1, 16, 128, 128]    --                        --              True
│    │    └─QATConv2d (0)                [1, 32, 128, 128]    [1, 192, 128, 128]   6,144                  0.44%              True
│    │    └─BatchNorm2d (1)              [1, 192, 128, 128]   [1, 192, 128, 128]   384                    0.03%              True
│    │    └─ReLU6 (2)                    [1, 192, 128, 128]   [1, 192, 128, 128]   --                        --              --
│    │    └─FakeQuantAct (3)             [1, 192, 128, 128]   [1, 192, 128, 128]   --                        --              --
│    │    └─QATConv2d (4)                [1, 192, 128, 128]   [1, 192, 128, 128]   1,728                  0.12%              True
│    │    └─BatchNorm2d (5)              [1, 192, 128, 128]   [1, 192, 128, 128]   384                    0.03%              True
│    │    └─ReLU6 (6)                    [1, 192, 128, 128]   [1, 192, 128, 128]   --                        --              --
│    │    └─FakeQuantAct (7)             [1, 192, 128, 128]   [1, 192, 128, 128]   --                        --              --
│    │    └─QATConv2d (8)                [1, 192, 128, 128]   [1, 16, 128, 128]    3,072                  0.22%              True
│    │    └─BatchNorm2d (9)              [1, 16, 128, 128]    [1, 16, 128, 128]    32                     0.00%              True
│    │    └─FakeQuantAct (10)            [1, 16, 128, 128]    [1, 16, 128, 128]    --                        --              --
├─QATConv2d (out_conv)                   [1, 16, 128, 128]    [1, 2, 128, 128]     34                     0.00%              True
============================================================================================================================================
Total params: 1,407,818
Trainable params: 1,407,818
Non-trainable params: 0
Total mult-adds (Units.MEGABYTES): 885.89
============================================================================================================================================
…
