…
      (10): FakeQuantAct()
    )
  )
  (upconv5): QATConvTranspose2d(16, 2, kernel_size=(4, 4), stride=(2, 2), padding=(1, 1))
)
============================================================================================================================================
Layer (type (var_name))                  Input Shape          Output Shape         Param #              Param %              Trainable
============================================================================================================================================
UNet2D (UNet2D)                          [1, 4, 128, 128]     [1, 2, 128, 128]     --                        --              True
тФЬтФАSequential (stem)                      [1, 4, 128, 128]     [1, 32, 64, 64]      --                        --              True
тФВ    тФФтФАQATConv2d (0)                     [1, 4, 128, 128]     [1, 32, 64, 64]      1,152                  0.02%              True
тФВ    тФФтФАBatchNorm2d (1)                   [1, 32, 64, 64]      [1, 32, 64, 64]      64                     0.00%              True
тФВ    тФФтФАReLU6 (2)                         [1, 32, 64, 64]      [1, 32, 64, 64]      --                        --              --
тФВ    тФФтФАFakeQuantAct (3)                  [1, 32, 64, 64]      [1, 32, 64, 64]      --                        --              --
тФЬтФАSequential (d1)                        [1, 32, 64, 64]      [1, 16, 64, 64]      --                        --              True
тФВ    тФФтФАInvertedResidual (0)              [1, 32, 64, 64]      [1, 16, 64, 64]      --                        --              True
тФВ    тФВ    тФФтФАSequential (block)           [1, 32, 64, 64]      [1, 16, 64, 64]      --                        --              True
тФВ    тФВ    тФВ    тФФтФАQATConv2d (0)           [1, 32, 64, 64]      [1, 32, 64, 64]      1,024                  0.02%              True
тФВ    тФВ    тФВ    тФФтФАBatchNorm2d (1)         [1, 32, 64, 64]      [1, 32, 64, 64]      64                     0.00%              True
тФВ    тФВ    тФВ    тФФтФАReLU6 (2)               [1, 32, 64, 64]      [1, 32, 64, 64]      --                        --              --
тФВ    тФВ    тФВ    тФФтФАFakeQuantAct (3)        [1, 32, 64, 64]      [1, 32, 64, 64]      --                        --              --
тФВ    тФВ    тФВ    тФФтФАQATConv2d (4)           [1, 32, 64, 64]      [1, 32, 64, 64]      288                    0.01%              True
тФВ    тФВ    тФВ    тФФтФАBatchNorm2d (5)         [1, 32, 64, 64]      [1, 32, 64, 64]      64                     0.00%              True
тФВ    тФВ    тФВ    тФФтФАReLU6 (6)               [1, 32, 64, 64]      [1, 32, 64, 64]      --                        --              --
тФВ    тФВ    тФВ    тФФтФАFakeQuantAct (7)        [1, 32, 64, 64]      [1, 32, 64, 64]      --                        --              --
тФВ    тФВ    тФВ    тФФтФАQATConv2d (8)           [1, 32, 64, 64]      [1, 16, 64, 64]      512                    0.01%              True
тФВ    тФВ    тФВ    тФФтФАBatchNorm2d (9)         [1, 16, 64, 64]      [1, 16, 64, 64]      32                     0.00%              True
тФВ    тФВ    тФВ    тФФтФАFakeQuantAct (10)       [1, 16, 64, 64]      [1, 16, 64, 64]      --                        --              --
тФЬтФАSequential (d2)                        [1, 16, 64, 64]      [1, 24, 32, 32]      --                        --              True
тФВ    тФФтФАInvertedResidual (0)              [1, 16, 64, 64]      [1, 24, 32, 32]      --                        --              True
тФВ    тФВ    тФФтФАSequential (block)           [1, 16, 64, 64]      [1, 24, 32, 32]      --                        --              True
тФВ    тФВ    тФВ    тФФтФАQATConv2d (0)           [1, 16, 64, 64]      [1, 96, 64, 64]      1,536                  0.03%              True
тФВ    тФВ    тФВ    тФФтФАBatchNorm2d (1)         [1, 96, 64, 64]      [1, 96, 64, 64]      192                    0.00%              True
тФВ    тФВ    тФВ    тФФтФАReLU6 (2)               [1, 96, 64, 64]      [1, 96, 64, 64]      --                        --              --
тФВ    тФВ    тФВ    тФФтФАFakeQuantAct (3)        [1, 96, 64, 64]      [1, 96, 64, 64]      --                        --              --
тФВ    тФВ    тФВ    тФФтФАQATConv2d (4)           [1, 96, 64, 64]      [1, 96, 32, 32]      864                    0.02%              True
тФВ    тФВ    тФВ    тФФтФАBatchNorm2d (5)         [1, 96, 32, 32]      [1, 96, 32, 32]      192                    0.00%              True
тФВ    тФВ    тФВ    тФФтФАReLU6 (6)               [1, 96, 32, 32]      [1, 96, 32, 32]      --                        --              --
тФВ    тФВ    тФВ    тФФтФАFakeQuantAct (7)        [1, 96, 32, 32]      [1, 96, 32, 32]      --                        --              --
тФВ    тФВ    тФВ    тФФтФАQATConv2d (8)           [1, 96, 32, 32]      [1, 24, 32, 32]      2,304                  0.05%              True
тФВ    тФВ    тФВ    тФФтФАBatchNorm2d (9)         [1, 24, 32, 32]      [1, 24, 32, 32]      48                     0.00%              True
тФВ    тФВ    тФВ    тФФтФАFakeQuantAct (10)       [1, 24, 32, 32]      [1, 24, 32, 32]      --                        --              --
тФВ    тФФтФАInvertedResidual (1)              [1, 24, 32, 32]      [1, 24, 32, 32]      --                        --              True
тФВ    тФВ    тФФтФАSequential (block)           [1, 24, 32, 32]      [1, 24, 32, 32]      --                        --              True
тФВ    тФВ    тФВ    тФФтФАQATConv2d (0)           [1, 24, 32, 32]      [1, 144, 32, 32]     3,456                  0.07%              True
тФВ    тФВ    тФВ    тФФтФАBatchNorm2d (1)         [1, 144, 32, 32]     [1, 144, 32, 32]     288                    0.01%              True
тФВ    тФВ    тФВ    тФФтФАReLU6 (2)               [1, 144, 32, 32]     [1, 144, 32, 32]     --                        --              --
тФВ    тФВ    тФВ    тФФтФАFakeQuantAct (3)        [1, 144, 32, 32]     [1, 144, 32, 32]     --                        --              --
тФВ    тФВ    тФВ    тФФтФАQATConv2d (4)           [1, 144, 32, 32]     [1, 144, 32, 32]     1,296                  0.03%              True
тФВ    тФВ    тФВ    тФФтФАBatchNorm2d (5)         [1, 144, 32, 32]     [1, 144, 32, 32]     288                    0.01%              True
тФВ    тФВ    тФВ    тФФтФАReLU6 (6)               [1, 144, 32, 32]     [1, 144, 32, 32]     --                        --              --
тФВ    тФВ    тФВ    тФФтФАFakeQuantAct (7)        [1, 144, 32, 32]     [1, 144, 32, 32]     --                        --              --
тФВ    тФВ    тФВ    тФФтФАQATConv2d (8)           [1, 144, 32, 32]     [1, 24, 32, 32]      3,456                  0.07%              True
тФВ    тФВ    тФВ    тФФтФАBatchNorm2d (9)         [1, 24, 32, 32]      [1, 24, 32, 32]      48                     0.00%              True
тФВ    тФВ    тФВ    тФФтФАFakeQuantAct (10)       [1, 24, 32, 32]      [1, 24, 32, 32]      --                        --              --
тФЬтФАSequential (d3)                        [1, 24, 32, 32]      [1, 32, 16, 16]      --                        --              True
тФВ    тФФтФАInvertedResidual (0)              [1, 24, 32, 32]      [1, 32, 16, 16]      --                        --              True
тФВ    тФВ    тФФтФАSequential (block)           [1, 24, 32, 32]      [1, 32, 16, 16]      --                        --              True
тФВ    тФВ    тФВ    тФФтФАQATConv2d (0)           [1, 24, 32, 32]      [1, 144, 32, 32]     3,456                  0.07%              True
тФВ    тФВ    тФВ    тФФтФАBatchNorm2d (1)         [1, 144, 32, 32]     [1, 144, 32, 32]     288                    0.01%              True
тФВ    тФВ    тФВ    тФФтФАReLU6 (2)               [1, 144, 32, 32]     [1, 144, 32, 32]     --                        --              --
тФВ    тФВ    тФВ    тФФтФАFakeQuantAct (3)        [1, 144, 32, 32]     [1, 144, 32, 32]     --                        --              --
тФВ    тФВ    тФВ    тФФтФАQATConv2d (4)           [1, 144, 32, 32]     [1, 144, 16, 16]     1,296                  0.03%              True
тФВ    тФВ    тФВ    тФФтФАBatchNorm2d (5)         [1, 144, 16, 16]     [1, 144, 16, 16]     288                    0.01%              True
тФВ    тФВ    тФВ    тФФтФАReLU6 (6)               [1, 144, 16, 16]     [1, 144, 16, 16]     --                        --              --
тФВ    тФВ    тФВ    тФФтФАFakeQuantAct (7)        [1, 144, 16, 16]     [1, 144, 16, 16]     --                        --              --
тФВ    тФВ    тФВ    тФФтФАQATConv2d (8)           [1, 144, 16, 16]     [1, 32, 16, 16]      4,608                  0.10%              True
тФВ    тФВ    тФВ    тФФтФАBatchNorm2d (9)         [1, 32, 16, 16]      [1, 32, 16, 16]      64                     0.00%              True
тФВ    тФВ    тФВ    тФФтФАFakeQuantAct (10)       [1, 32, 16, 16]      [1, 32, 16, 16]      --                        --              --
тФВ    тФФтФАInvertedResidual (1)              [1, 32, 16, 16]      [1, 32, 16, 16]      --                        --              True
тФВ    тФВ    тФФтФАSequential (block)           [1, 32, 16, 16]      [1, 32, 16, 16]      --                        --              True
тФВ    тФВ    тФВ    тФФтФАQATConv2d (0)           [1, 32, 16, 16]      [1, 192, 16, 16]     6,144                  0.13%              True
тФВ    тФВ    тФВ    тФФтФАBatchNorm2d (1)         [1, 192, 16, 16]     [1, 192, 16, 16]     384                    0.01%              True
тФВ    тФВ    тФВ    тФФтФАReLU6 (2)               [1, 192, 16, 16]     [1, 192, 16, 16]     --                        --              --
тФВ    тФВ    тФВ    тФФтФАFakeQuantAct (3)        [1, 192, 16, 16]     [1, 192, 16, 16]     --                        --              --
тФВ    тФВ    тФВ    тФФтФАQATConv2d (4)           [1, 192, 16, 16]     [1, 192, 16, 16]     1,728                  0.04%              True
тФВ    тФВ    тФВ    тФФтФАBatchNorm2d (5)         [1, 192, 16, 16]     [1, 192, 16, 16]     384                    0.01%              True
тФВ    тФВ    тФВ    тФФтФАReLU6 (6)               [1, 192, 16, 16]     [1, 192, 16, 16]     --                        --              --
тФВ    тФВ    тФВ    тФФтФАFakeQuantAct (7)        [1, 192, 16, 16]     [1, 192, 16, 16]     --                        --              --
тФВ    тФВ    тФВ    тФФтФАQATConv2d (8)           [1, 192, 16, 16]     [1, 32, 16, 16]      6,144                  0.13%              True
тФВ    тФВ    тФВ    тФФтФАBatchNorm2d (9)         [1, 32, 16, 16]      [1, 32, 16, 16]      64                     0.00%              True
тФВ    тФВ    тФВ    тФФтФАFakeQuantAct (10)       [1, 32, 16, 16]      [1, 32, 16, 16]      --                        --              --
тФВ    тФФтФАInvertedResidual (2)              [1, 32, 16, 16]      [1, 32, 16, 16]      --                        --              True
тФВ    тФВ    тФФтФАSequential (block)           [1, 32, 16, 16]      [1, 32, 16, 16]      --                        --              True
тФВ    тФВ    тФВ    тФФтФАQATConv2d (0)           [1, 32, 16, 16]      [1, 192, 16, 16]     6,144                  0.13%              True
тФВ    тФВ    тФВ    тФФтФАBatchNorm2d (1)         [1, 192, 16, 16]     [1, 192, 16, 16]     384                    0.01%              True
тФВ    тФВ    тФВ    тФФтФАReLU6 (2)               [1, 192, 16, 16]     [1, 192, 16, 16]     --                        --              --
тФВ    тФВ    тФВ    тФФтФАFakeQuantAct (3)        [1, 192, 16, 16]     [1, 192, 16, 16]     --                        --              --
тФВ    тФВ    тФВ    тФФтФАQATConv2d (4)           [1, 192, 16, 16]     [1, 192, 16, 16]     1,728                  0.04%              True
тФВ    тФВ    тФВ    тФФтФАBatchNorm2d (5)         [1, 192, 16, 16]     [1, 192, 16, 16]     384                    0.01%              True
тФВ    тФВ    тФВ    тФФтФАReLU6 (6)               [1, 192, 16, 16]     [1, 192, 16, 16]     --                        --              --
тФВ    тФВ    тФВ    тФФтФАFakeQuantAct (7)        [1, 192, 16, 16]     [1, 192, 16, 16]     --                        --              --
тФВ    тФВ    тФВ    тФФтФАQATConv2d (8)           [1, 192, 16, 16]     [1, 32, 16, 16]      6,144                  0.13%              True
тФВ    тФВ    тФВ    тФФтФАBatchNorm2d (9)         [1, 32, 16, 16]      [1, 32, 16, 16]      64                     0.00%              True
тФВ    тФВ    тФВ    тФФтФАFakeQuantAct (10)       [1, 32, 16, 16]      [1, 32, 16, 16]      --                        --              --
тФЬтФАSequential (d4a)                       [1, 32, 16, 16]      [1, 64, 8, 8]        --                        --              True
тФВ    тФФтФАInvertedResidual (0)              [1, 32, 16, 16]      [1, 64, 8, 8]        --                        --              True
тФВ    тФВ    тФФтФАSequential (block)           [1, 32, 16, 16]      [1, 64, 8, 8]        --                        --              True
тФВ    тФВ    тФВ    тФФтФАQATConv2d (0)           [1, 32, 16, 16]      [1, 192, 16, 16]     6,144                  0.13%              True
тФВ    тФВ    тФВ    тФФтФАBatchNorm2d (1)         [1, 192, 16, 16]     [1, 192, 16, 16]     384                    0.01%              True
тФВ    тФВ    тФВ    тФФтФАReLU6 (2)               [1, 192, 16, 16]     [1, 192, 16, 16]     --                        --              --
тФВ    тФВ    тФВ    тФФтФАFakeQuantAct (3)        [1, 192, 16, 16]     [1, 192, 16, 16]     --                        --              --
тФВ    тФВ    тФВ    тФФтФАQATConv2d (4)           [1, 192, 16, 16]     [1, 192, 8, 8]       1,728                  0.04%              True
тФВ    тФВ    тФВ    тФФтФАBatchNorm2d (5)         [1, 192, 8, 8]       [1, 192, 8, 8]       384                    0.01%              True
тФВ    тФВ    тФВ    тФФтФАReLU6 (6)               [1, 192, 8, 8]       [1, 192, 8, 8]       --                        --              --
тФВ    тФВ    тФВ    тФФтФАFakeQuantAct (7)        [1, 192, 8, 8]       [1, 192, 8, 8]       --                        --              --
тФВ    тФВ    тФВ    тФФтФАQATConv2d (8)           [1, 192, 8, 8]       [1, 64, 8, 8]        12,288                 0.26%              True
тФВ    тФВ    тФВ    тФФтФАBatchNorm2d (9)         [1, 64, 8, 8]        [1, 64, 8, 8]        128                    0.00%              True
тФВ    тФВ    тФВ    тФФтФАFakeQuantAct (10)       [1, 64, 8, 8]        [1, 64, 8, 8]        --                        --              --
тФВ    тФФтФАInvertedResidual (1)              [1, 64, 8, 8]        [1, 64, 8, 8]        --                        --              True
тФВ    тФВ    тФФтФАSequential (block)           [1, 64, 8, 8]        [1, 64, 8, 8]        --                        --              True
тФВ    тФВ    тФВ    тФФтФАQATConv2d (0)           [1, 64, 8, 8]        [1, 384, 8, 8]       24,576                 0.52%              True
тФВ    тФВ    тФВ    тФФтФАBatchNorm2d (1)         [1, 384, 8, 8]       [1, 384, 8, 8]       768                    0.02%              True
тФВ    тФВ    тФВ    тФФтФАReLU6 (2)               [1, 384, 8, 8]       [1, 384, 8, 8]       --                        --              --
тФВ    тФВ    тФВ    тФФтФАFakeQuantAct (3)        [1, 384, 8, 8]       [1, 384, 8, 8]       --                        --              --
тФВ    тФВ    тФВ    тФФтФАQATConv2d (4)           [1, 384, 8, 8]       [1, 384, 8, 8]       3,456                  0.07%              True
тФВ    тФВ    тФВ    тФФтФАBatchNorm2d (5)         [1, 384, 8, 8]       [1, 384, 8, 8]       768                    0.02%              True
тФВ    тФВ    тФВ    тФФтФАReLU6 (6)               [1, 384, 8, 8]       [1, 384, 8, 8]       --                        --              --
тФВ    тФВ    тФВ    тФФтФАFakeQuantAct (7)        [1, 384, 8, 8]       [1, 384, 8, 8]       --                        --              --
тФВ    тФВ    тФВ    тФФтФАQATConv2d (8)           [1, 384, 8, 8]       [1, 64, 8, 8]        24,576                 0.52%              True
тФВ    тФВ    тФВ    тФФтФАBatchNorm2d (9)         [1, 64, 8, 8]        [1, 64, 8, 8]        128                    0.00%              True
тФВ    тФВ    тФВ    тФФтФАFakeQuantAct (10)       [1, 64, 8, 8]        [1, 64, 8, 8]        --                        --              --
тФВ    тФФтФАInvertedResidual (2)              [1, 64, 8, 8]        [1, 64, 8, 8]        --                        --              True
тФВ    тФВ    тФФтФАSequential (block)           [1, 64, 8, 8]        [1, 64, 8, 8]        --                        --              True
тФВ    тФВ    тФВ    тФФтФАQATConv2d (0)           [1, 64, 8, 8]        [1, 384, 8, 8]       24,576                 0.52%              True
тФВ    тФВ    тФВ    тФФтФАBatchNorm2d (1)         [1, 384, 8, 8]       [1, 384, 8, 8]       768                    0.02%              True
тФВ    тФВ    тФВ    тФФтФАReLU6 (2)               [1, 384, 8, 8]       [1, 384, 8, 8]       --                        --              --
тФВ    тФВ    тФВ    тФФтФАFakeQuantAct (3)        [1, 384, 8, 8]       [1, 384, 8, 8]       --                        --              --
тФВ    тФВ    тФВ    тФФтФАQATConv2d (4)           [1, 384, 8, 8]       [1, 384, 8, 8]       3,456                  0.07%              True
тФВ    тФВ    тФВ    тФФтФАBatchNorm2d (5)         [1, 384, 8, 8]       [1, 384, 8, 8]       768                    0.02%              True
тФВ    тФВ    тФВ    тФФтФАReLU6 (6)               [1, 384, 8, 8]       [1, 384, 8, 8]       --                        --              --
тФВ    тФВ    тФВ    тФФтФАFakeQuantAct (7)        [1, 384, 8, 8]       [1, 384, 8, 8]       --                        --              --
тФВ    тФВ    тФВ    тФФтФАQATConv2d (8)           [1, 384, 8, 8]       [1, 64, 8, 8]        24,576                 0.52%              True
тФВ    тФВ    тФВ    тФФтФАBatchNorm2d (9)         [1, 64, 8, 8]        [1, 64, 8, 8]        128                    0.00%              True
тФВ    тФВ    тФВ    тФФтФАFakeQuantAct (10)       [1, 64, 8, 8]        [1, 64, 8, 8]        --                        --              --
тФВ    тФФтФАInvertedResidual (3)              [1, 64, 8, 8]        [1, 64, 8, 8]        --                        --              True
тФВ    тФВ    тФФтФАSequential (block)           [1, 64, 8, 8]        [1, 64, 8, 8]        --                        --              True
тФВ    тФВ    тФВ    тФФтФАQATConv2d (0)           [1, 64, 8, 8]        [1, 384, 8, 8]       24,576                 0.52%              True
тФВ    тФВ    тФВ    тФФтФАBatchNorm2d (1)         [1, 384, 8, 8]       [1, 384, 8, 8]       768                    0.02%              True
тФВ    тФВ    тФВ    тФФтФАReLU6 (2)               [1, 384, 8, 8]       [1, 384, 8, 8]       --                        --              --
тФВ    тФВ    тФВ    тФФтФАFakeQuantAct (3)        [1, 384, 8, 8]       [1, 384, 8, 8]       --                        --              --
тФВ    тФВ    тФВ    тФФтФАQATConv2d (4)           [1, 384, 8, 8]       [1, 384, 8, 8]       3,456                  0.07%              True
тФВ    тФВ    тФВ    тФФтФАBatchNorm2d (5)         [1, 384, 8, 8]       [1, 384, 8, 8]       768                    0.02%              True
тФВ    тФВ    тФВ    тФФтФАReLU6 (6)               [1, 384, 8, 8]       [1, 384, 8, 8]       --                        --              --
тФВ    тФВ    тФВ    тФФтФАFakeQuantAct (7)        [1, 384, 8, 8]       [1, 384, 8, 8]       --                        --              --
тФВ    тФВ    тФВ    тФФтФАQATConv2d (8)           [1, 384, 8, 8]       [1, 64, 8, 8]        24,576                 0.52%              True
тФВ    тФВ    тФВ    тФФтФАBatchNorm2d (9)         [1, 64, 8, 8]        [1, 64, 8, 8]        128                    0.00%              True
тФВ    тФВ    тФВ    тФФтФАFakeQuantAct (10)       [1, 64, 8, 8]        [1, 64, 8, 8]        --                        --              --
тФЬтФАSequential (d4b)                       [1, 64, 8, 8]        [1, 96, 8, 8]        --                        --              True
тФВ    тФФтФАInvertedResidual (0)              [1, 64, 8, 8]        [1, 96, 8, 8]        --                        --              True
тФВ    тФВ    тФФтФАSequential (block)           [1, 64, 8, 8]        [1, 96, 8, 8]        --                        --              True
тФВ    тФВ    тФВ    тФФтФАQATConv2d (0)           [1, 64, 8, 8]        [1, 384, 8, 8]       24,576                 0.52%              True
тФВ    тФВ    тФВ    тФФтФАBatchNorm2d (1)         [1, 384, 8, 8]       [1, 384, 8, 8]       768                    0.02%              True
тФВ    тФВ    тФВ    тФФтФАReLU6 (2)               [1, 384, 8, 8]       [1, 384, 8, 8]       --                        --              --
тФВ    тФВ    тФВ    тФФтФАFakeQuantAct (3)        [1, 384, 8, 8]       [1, 384, 8, 8]       --                        --              --
тФВ    тФВ    тФВ    тФФтФАQATConv2d (4)           [1, 384, 8, 8]       [1, 384, 8, 8]       3,456                  0.07%              True
тФВ    тФВ    тФВ    тФФтФАBatchNorm2d (5)         [1, 384, 8, 8]       [1, 384, 8, 8]       768                    0.02%              True
тФВ    тФВ    тФВ    тФФтФАReLU6 (6)               [1, 384, 8, 8]       [1, 384, 8, 8]       --                        --              --
тФВ    тФВ    тФВ    тФФтФАFakeQuantAct (7)        [1, 384, 8, 8]       [1, 384, 8, 8]       --                        --              --
тФВ    тФВ    тФВ    тФФтФАQATConv2d (8)           [1, 384, 8, 8]       [1, 96, 8, 8]        36,864                 0.79%              True
тФВ    тФВ    тФВ    тФФтФАBatchNorm2d (9)         [1, 96, 8, 8]        [1, 96, 8, 8]        192                    0.00%              True
тФВ    тФВ    тФВ    тФФтФАFakeQuantAct (10)       [1, 96, 8, 8]        [1, 96, 8, 8]        --                        --              --
тФВ    тФФтФАInvertedResidual (1)              [1, 96, 8, 8]        [1, 96, 8, 8]        --                        --              True
тФВ    тФВ    тФФтФАSequential (block)           [1, 96, 8, 8]        [1, 96, 8, 8]        --                        --              True
тФВ    тФВ    тФВ    тФФтФАQATConv2d (0)           [1, 96, 8, 8]        [1, 576, 8, 8]       55,296                 1.18%              True
тФВ    тФВ    тФВ    тФФтФАBatchNorm2d (1)         [1, 576, 8, 8]       [1, 576, 8, 8]       1,152                  0.02%              True
тФВ    тФВ    тФВ    тФФтФАReLU6 (2)               [1, 576, 8, 8]       [1, 576, 8, 8]       --                        --              --
тФВ    тФВ    тФВ    тФФтФАFakeQuantAct (3)        [1, 576, 8, 8]       [1, 576, 8, 8]       --                        --              --
тФВ    тФВ    тФВ    тФФтФАQATConv2d (4)           [1, 576, 8, 8]       [1, 576, 8, 8]       5,184                  0.11%              True
тФВ    тФВ    тФВ    тФФтФАBatchNorm2d (5)         [1, 576, 8, 8]       [1, 576, 8, 8]       1,152                  0.02%              True
тФВ    тФВ    тФВ    тФФтФАReLU6 (6)               [1, 576, 8, 8]       [1, 576, 8, 8]       --                        --              --
тФВ    тФВ    тФВ    тФФтФАFakeQuantAct (7)        [1, 576, 8, 8]       [1, 576, 8, 8]       --                        --              --
тФВ    тФВ    тФВ    тФФтФАQATConv2d (8)           [1, 576, 8, 8]       [1, 96, 8, 8]        55,296                 1.18%              True
тФВ    тФВ    тФВ    тФФтФАBatchNorm2d (9)         [1, 96, 8, 8]        [1, 96, 8, 8]        192                    0.00%              True
тФВ    тФВ    тФВ    тФФтФАFakeQuantAct (10)       [1, 96, 8, 8]        [1, 96, 8, 8]        --                        --              --
тФВ    тФФтФАInvertedResidual (2)              [1, 96, 8, 8]        [1, 96, 8, 8]        --                        --              True
тФВ    тФВ    тФФтФАSequential (block)           [1, 96, 8, 8]        [1, 96, 8, 8]        --                        --              True
тФВ    тФВ    тФВ    тФФтФАQATConv2d (0)           [1, 96, 8, 8]        [1, 576, 8, 8]       55,296                 1.18%              True
тФВ    тФВ    тФВ    тФФтФАBatchNorm2d (1)         [1, 576, 8, 8]       [1, 576, 8, 8]       1,152                  0.02%              True
тФВ    тФВ    тФВ    тФФтФАReLU6 (2)               [1, 576, 8, 8]       [1, 576, 8, 8]       --                        --              --
тФВ    тФВ    тФВ    тФФтФАFakeQuantAct (3)        [1, 576, 8, 8]       [1, 576, 8, 8]       --                        --              --
тФВ    тФВ    тФВ    тФФтФАQATConv2d (4)           [1, 576, 8, 8]       [1, 576, 8, 8]       5,184                  0.11%              True
тФВ    тФВ    тФВ    тФФтФАBatchNorm2d (5)         [1, 576, 8, 8]       [1, 576, 8, 8]       1,152                  0.02%              True
тФВ    тФВ    тФВ    тФФтФАReLU6 (6)               [1, 576, 8, 8]       [1, 576, 8, 8]       --                        --              --
тФВ    тФВ    тФВ    тФФтФАFakeQuantAct (7)        [1, 576, 8, 8]       [1, 576, 8, 8]       --                        --              --
тФВ    тФВ    тФВ    тФФтФАQATConv2d (8)           [1, 576, 8, 8]       [1, 96, 8, 8]        55,296                 1.18%              True
тФВ    тФВ    тФВ    тФФтФАBatchNorm2d (9)         [1, 96, 8, 8]        [1, 96, 8, 8]        192                    0.00%              True
тФВ    тФВ    тФВ    тФФтФАFakeQuantAct (10)       [1, 96, 8, 8]        [1, 96, 8, 8]        --                        --              --
тФЬтФАSequential (d5a)                       [1, 96, 8, 8]        [1, 160, 4, 4]       --                        --              True
тФВ    тФФтФАInvertedResidual (0)              [1, 96, 8, 8]        [1, 160, 4, 4]       --                        --              True
тФВ    тФВ    тФФтФАSequential (block)           [1, 96, 8, 8]        [1, 160, 4, 4]       --                        --              True
тФВ    тФВ    тФВ    тФФтФАQATConv2d (0)           [1, 96, 8, 8]        [1, 576, 8, 8]       55,296                 1.18%              True
тФВ    тФВ    тФВ    тФФтФАBatchNorm2d (1)         [1, 576, 8, 8]       [1, 576, 8, 8]       1,152                  0.02%              True
тФВ    тФВ    тФВ    тФФтФАReLU6 (2)               [1, 576, 8, 8]       [1, 576, 8, 8]       --                        --              --
тФВ    тФВ    тФВ    тФФтФАFakeQuantAct (3)        [1, 576, 8, 8]       [1, 576, 8, 8]       --                        --              --
тФВ    тФВ    тФВ    тФФтФАQATConv2d (4)           [1, 576, 8, 8]       [1, 576, 4, 4]       5,184                  0.11%              True
тФВ    тФВ    тФВ    тФФтФАBatchNorm2d (5)         [1, 576, 4, 4]       [1, 576, 4, 4]       1,152                  0.02%              True
тФВ    тФВ    тФВ    тФФтФАReLU6 (6)               [1, 576, 4, 4]       [1, 576, 4, 4]       --                        --              --
тФВ    тФВ    тФВ    тФФтФАFakeQuantAct (7)        [1, 576, 4, 4]       [1, 576, 4, 4]       --                        --              --
тФВ    тФВ    тФВ    тФФтФАQATConv2d (8)           [1, 576, 4, 4]       [1, 160, 4, 4]       92,160                 1.97%              True
тФВ    тФВ    тФВ    тФФтФАBatchNorm2d (9)         [1, 160, 4, 4]       [1, 160, 4, 4]       320                    0.01%              True
тФВ    тФВ    тФВ    тФФтФАFakeQuantAct (10)       [1, 160, 4, 4]       [1, 160, 4, 4]       --                        --              --
тФВ    тФФтФАInvertedResidual (1)              [1, 160, 4, 4]       [1, 160, 4, 4]       --                        --              True
тФВ    тФВ    тФФтФАSequential (block)           [1, 160, 4, 4]       [1, 160, 4, 4]       --                        --              True
тФВ    тФВ    тФВ    тФФтФАQATConv2d (0)           [1, 160, 4, 4]       [1, 960, 4, 4]       153,600                3.28%              True
тФВ    тФВ    тФВ    тФФтФАBatchNorm2d (1)         [1, 960, 4, 4]       [1, 960, 4, 4]       1,920                  0.04%              True
тФВ    тФВ    тФВ    тФФтФАReLU6 (2)               [1, 960, 4, 4]       [1, 960, 4, 4]       --                        --              --
тФВ    тФВ    тФВ    тФФтФАFakeQuantAct (3)        [1, 960, 4, 4]       [1, 960, 4, 4]       --                        --              --
тФВ    тФВ    тФВ    тФФтФАQATConv2d (4)           [1, 960, 4, 4]       [1, 960, 4, 4]       8,640                  0.18%              True
тФВ    тФВ    тФВ    тФФтФАBatchNorm2d (5)         [1, 960, 4, 4]       [1, 960, 4, 4]       1,920                  0.04%              True
тФВ    тФВ    тФВ    тФФтФАReLU6 (6)               [1, 960, 4, 4]       [1, 960, 4, 4]       --                        --              --
тФВ    тФВ    тФВ    тФФтФАFakeQuantAct (7)        [1, 960, 4, 4]       [1, 960, 4, 4]       --                        --              --
тФВ    тФВ    тФВ    тФФтФАQATConv2d (8)           [1, 960, 4, 4]       [1, 160, 4, 4]       153,600                3.28%              True
тФВ    тФВ    тФВ    тФФтФАBatchNorm2d (9)         [1, 160, 4, 4]       [1, 160, 4, 4]       320                    0.01%              True
тФВ    тФВ    тФВ    тФФтФАFakeQuantAct (10)       [1, 160, 4, 4]       [1, 160, 4, 4]       --                        --              --
тФВ    тФФтФАInvertedResidual (2)              [1, 160, 4, 4]       [1, 160, 4, 4]       --                        --              True
тФВ    тФВ    тФФтФАSequential (block)           [1, 160, 4, 4]       [1, 160, 4, 4]       --                        --              True
тФВ    тФВ    тФВ    тФФтФАQATConv2d (0)           [1, 160, 4, 4]       [1, 960, 4, 4]       153,600                3.28%              True
тФВ    тФВ    тФВ    тФФтФАBatchNorm2d (1)         [1, 960, 4, 4]       [1, 960, 4, 4]       1,920                  0.04%              True
тФВ    тФВ    тФВ    тФФтФАReLU6 (2)               [1, 960, 4, 4]       [1, 960, 4, 4]       --                        --              --
тФВ    тФВ    тФВ    тФФтФАFakeQuantAct (3)        [1, 960, 4, 4]       [1, 960, 4, 4]       --                        --              --
тФВ    тФВ    тФВ    тФФтФАQATConv2d (4)           [1, 960, 4, 4]       [1, 960, 4, 4]       8,640                  0.18%              True
тФВ    тФВ    тФВ    тФФтФАBatchNorm2d (5)         [1, 960, 4, 4]       [1, 960, 4, 4]       1,920                  0.04%              True
тФВ    тФВ    тФВ    тФФтФАReLU6 (6)               [1, 960, 4, 4]       [1, 960, 4, 4]       --                        --              --
тФВ    тФВ    тФВ    тФФтФАFakeQuantAct (7)        [1, 960, 4, 4]       [1, 960, 4, 4]       --                        --              --
тФВ    тФВ    тФВ    тФФтФАQATConv2d (8)           [1, 960, 4, 4]       [1, 160, 4, 4]       153,600                3.28%              True
тФВ    тФВ    тФВ    тФФтФАBatchNorm2d (9)         [1, 160, 4, 4]       [1, 160, 4, 4]       320                    0.01%              True
тФВ    тФВ    тФВ    тФФтФАFakeQuantAct (10)       [1, 160, 4, 4]       [1, 160, 4, 4]       --                        --              --
тФЬтФАSequential (d5b)                       [1, 160, 4, 4]       [1, 320, 4, 4]       --                        --              True
тФВ    тФФтФАInvertedResidual (0)              [1, 160, 4, 4]       [1, 320, 4, 4]       --                        --              True
тФВ    тФВ    тФФтФАSequential (block)           [1, 160, 4, 4]       [1, 320, 4, 4]       --                        --              True
тФВ    тФВ    тФВ    тФФтФАQATConv2d (0)           [1, 160, 4, 4]       [1, 960, 4, 4]       153,600                3.28%              True
тФВ    тФВ    тФВ    тФФтФАBatchNorm2d (1)         [1, 960, 4, 4]       [1, 960, 4, 4]       1,920                  0.04%              True
тФВ    тФВ    тФВ    тФФтФАReLU6 (2)               [1, 960, 4, 4]       [1, 960, 4, 4]       --                        --              --
тФВ    тФВ    тФВ    тФФтФАFakeQuantAct (3)        [1, 960, 4, 4]       [1, 960, 4, 4]       --                        --              --
тФВ    тФВ    тФВ    тФФтФАQATConv2d (4)           [1, 960, 4, 4]       [1, 960, 4, 4]       8,640                  0.18%              True
тФВ    тФВ    тФВ    тФФтФАBatchNorm2d (5)         [1, 960, 4, 4]       [1, 960, 4, 4]       1,920                  0.04%              True
тФВ    тФВ    тФВ    тФФтФАReLU6 (6)               [1, 960, 4, 4]       [1, 960, 4, 4]       --                        --              --
тФВ    тФВ    тФВ    тФФтФАFakeQuantAct (7)        [1, 960, 4, 4]       [1, 960, 4, 4]       --                        --              --
тФВ    тФВ    тФВ    тФФтФАQATConv2d (8)           [1, 960, 4, 4]       [1, 320, 4, 4]       307,200                6.56%              True
тФВ    тФВ    тФВ    тФФтФАBatchNorm2d (9)         [1, 320, 4, 4]       [1, 320, 4, 4]       640                    0.01%              True
тФВ    тФВ    тФВ    тФФтФАFakeQuantAct (10)       [1, 320, 4, 4]       [1, 320, 4, 4]       --                        --              --
тФЬтФАSequential (c1)                        [1, 320, 4, 4]       [1, 1280, 4, 4]      --                        --              True
тФВ    тФФтФАQATConv2d (0)                     [1, 320, 4, 4]       [1, 1280, 4, 4]      409,600                8.74%              True
тФВ    тФФтФАBatchNorm2d (1)                   [1, 1280, 4, 4]      [1, 1280, 4, 4]      2,560                  0.05%              True
тФВ    тФФтФАReLU6 (2)                         [1, 1280, 4, 4]      [1, 1280, 4, 4]      --                        --              --
тФВ    тФФтФАFakeQuantAct (3)                  [1, 1280, 4, 4]      [1, 1280, 4, 4]      --                        --              --
тФЬтФАQATConvTranspose2d (upconv1)           [1, 1280, 4, 4]      [1, 96, 8, 8]        1,966,176             41.97%              True
тФЬтФАFakeQuantAct (upconv1_quant)           [1, 96, 8, 8]        [1, 96, 8, 8]        --                        --              --
тФЬтФАInvertedResidual (ir1)                 [1, 192, 8, 8]       [1, 96, 8, 8]        --                        --              True
тФВ    тФФтФАSequential (block)                [1, 192, 8, 8]       [1, 96, 8, 8]        --                        --              True
тФВ    тФВ    тФФтФАQATConv2d (0)                [1, 192, 8, 8]       [1, 1152, 8, 8]      221,184                4.72%              True
тФВ    тФВ    тФФтФАBatchNorm2d (1)              [1, 1152, 8, 8]      [1, 1152, 8, 8]      2,304                  0.05%              True
тФВ    тФВ    тФФтФАReLU6 (2)                    [1, 1152, 8, 8]      [1, 1152, 8, 8]      --                        --              --
тФВ    тФВ    тФФтФАFakeQuantAct (3)             [1, 1152, 8, 8]      [1, 1152, 8, 8]      --                        --              --
тФВ    тФВ    тФФтФАQATConv2d (4)                [1, 1152, 8, 8]      [1, 1152, 8, 8]      10,368                 0.22%              True
тФВ    тФВ    тФФтФАBatchNorm2d (5)              [1, 1152, 8, 8]      [1, 1152, 8, 8]      2,304                  0.05%              True
тФВ    тФВ    тФФтФАReLU6 (6)                    [1, 1152, 8, 8]      [1, 1152, 8, 8]      --                        --              --
тФВ    тФВ    тФФтФАFakeQuantAct (7)             [1, 1152, 8, 8]      [1, 1152, 8, 8]      --                        --              --
тФВ    тФВ    тФФтФАQATConv2d (8)                [1, 1152, 8, 8]      [1, 96, 8, 8]        110,592                2.36%              True
тФВ    тФВ    тФФтФАBatchNorm2d (9)              [1, 96, 8, 8]        [1, 96, 8, 8]        192                    0.00%              True
тФВ    тФВ    тФФтФАFakeQuantAct (10)            [1, 96, 8, 8]        [1, 96, 8, 8]        --                        --              --
тФЬтФАQATConvTranspose2d (upconv2)           [1, 96, 8, 8]        [1, 32, 16, 16]      49,184                 1.05%              True
тФЬтФАFakeQuantAct (upconv2_quant)           [1, 32, 16, 16]      [1, 32, 16, 16]      --                        --              --
тФЬтФАInvertedResidual (ir2)                 [1, 64, 16, 16]      [1, 32, 16, 16]      --                        --              True
тФВ    тФФтФАSequential (block)                [1, 64, 16, 16]      [1, 32, 16, 16]      --                        --              True
тФВ    тФВ    тФФтФАQATConv2d (0)                [1, 64, 16, 16]      [1, 384, 16, 16]     24,576                 0.52%              True
тФВ    тФВ    тФФтФАBatchNorm2d (1)              [1, 384, 16, 16]     [1, 384, 16, 16]     768                    0.02%              True
тФВ    тФВ    тФФтФАReLU6 (2)                    [1, 384, 16, 16]     [1, 384, 16, 16]     --                        --              --
тФВ    тФВ    тФФтФАFakeQuantAct (3)             [1, 384, 16, 16]     [1, 384, 16, 16]     --                        --              --
тФВ    тФВ    тФФтФАQATConv2d (4)                [1, 384, 16, 16]     [1, 384, 16, 16]     3,456                  0.07%              True
тФВ    тФВ    тФФтФАBatchNorm2d (5)              [1, 384, 16, 16]     [1, 384, 16, 16]     768                    0.02%              True
тФВ    тФВ    тФФтФАReLU6 (6)                    [1, 384, 16, 16]     [1, 384, 16, 16]     --                        --              --
тФВ    тФВ    тФФтФАFakeQuantAct (7)             [1, 384, 16, 16]     [1, 384, 16, 16]     --                        --              --
тФВ    тФВ    тФФтФАQATConv2d (8)                [1, 384, 16, 16]     [1, 32, 16, 16]      12,288                 0.26%              True
тФВ    тФВ    тФФтФАBatchNorm2d (9)              [1, 32, 16, 16]      [1, 32, 16, 16]      64                     0.00%              True
тФВ    тФВ    тФФтФАFakeQuantAct (10)            [1, 32, 16, 16]      [1, 32, 16, 16]      --                        --              --
тФЬтФАQATConvTranspose2d (upconv3)           [1, 32, 16, 16]      [1, 24, 32, 32]      12,312                 0.26%              True
тФЬтФАFakeQuantAct (upconv3_quant)           [1, 24, 32, 32]      [1, 24, 32, 32]      --                        --              --
тФЬтФАInvertedResidual (ir3)                 [1, 48, 32, 32]      [1, 24, 32, 32]      --                        --              True
тФВ    тФФтФАSequential (block)                [1, 48, 32, 32]      [1, 24, 32, 32]      --                        --              True
тФВ    тФВ    тФФтФАQATConv2d (0)                [1, 48, 32, 32]      [1, 288, 32, 32]     13,824                 0.30%              True
тФВ    тФВ    тФФтФАBatchNorm2d (1)              [1, 288, 32, 32]     [1, 288, 32, 32]     576                    0.01%              True
тФВ    тФВ    тФФтФАReLU6 (2)                    [1, 288, 32, 32]     [1, 288, 32, 32]     --                        --              --
тФВ    тФВ    тФФтФАFakeQuantAct (3)             [1, 288, 32, 32]     [1, 288, 32, 32]     --                        --              --
тФВ    тФВ    тФФтФАQATConv2d (4)                [1, 288, 32, 32]     [1, 288, 32, 32]     2,592                  0.06%              True
тФВ    тФВ    тФФтФАBatchNorm2d (5)              [1, 288, 32, 32]     [1, 288, 32, 32]     576                    0.01%              True
тФВ    тФВ    тФФтФАReLU6 (6)                    [1, 288, 32, 32]     [1, 288, 32, 32]     --                        --              --
тФВ    тФВ    тФФтФАFakeQuantAct (7)             [1, 288, 32, 32]     [1, 288, 32, 32]     --                        --              --
тФВ    тФВ    тФФтФАQATConv2d (8)                [1, 288, 32, 32]     [1, 24, 32, 32]      6,912                  0.15%              True
тФВ    тФВ    тФФтФАBatchNorm2d (9)              [1, 24, 32, 32]      [1, 24, 32, 32]      48                     0.00%              True
тФВ    тФВ    тФФтФАFakeQuantAct (10)            [1, 24, 32, 32]      [1, 24, 32, 32]      --                        --              --
тФЬтФАQATConvTranspose2d (upconv4)           [1, 24, 32, 32]      [1, 16, 64, 64]      6,160                  0.13%              True
тФЬтФАFakeQuantAct (upconv4_quant)           [1, 16, 64, 64]      [1, 16, 64, 64]      --                        --              --
тФЬтФАInvertedResidual (ir4)                 [1, 32, 64, 64]      [1, 16, 64, 64]      --                        --              True
тФВ    тФФтФАSequential (block)                [1, 32, 64, 64]      [1, 16, 64, 64]      --                        --              True
тФВ    тФВ    тФФтФАQATConv2d (0)                [1, 32, 64, 64]      [1, 192, 64, 64]     6,144                  0.13%              True
тФВ    тФВ    тФФтФАBatchNorm2d (1)              [1, 192, 64, 64]     [1, 192, 64, 64]     384                    0.01%              True
тФВ    тФВ    тФФтФАReLU6 (2)                    [1, 192, 64, 64]     [1, 192, 64, 64]     --                        --              --
тФВ    тФВ    тФФтФАFakeQuantAct (3)             [1, 192, 64, 64]     [1, 192, 64, 64]     --                        --              --
тФВ    тФВ    тФФтФАQATConv2d (4)                [1, 192, 64, 64]     [1, 192, 64, 64]     1,728                  0.04%              True
тФВ    тФВ    тФФтФАBatchNorm2d (5)              [1, 192, 64, 64]     [1, 192, 64, 64]     384                    0.01%              True
тФВ    тФВ    тФФтФАReLU6 (6)                    [1, 192, 64, 64]     [1, 192, 64, 64]     --                        --              --
тФВ    тФВ    тФФтФАFakeQuantAct (7)             [1, 192, 64, 64]     [1, 192, 64, 64]     --                        --              --
тФВ    тФВ    тФФтФАQATConv2d (8)                [1, 192, 64, 64]     [1, 16, 64, 64]      3,072                  0.07%              True
тФВ    тФВ    тФФтФАBatchNorm2d (9)              [1, 16, 64, 64]      [1, 16, 64, 64]      32                     0.00%              True
тФВ    тФВ    тФФтФАFakeQuantAct (10)            [1, 16, 64, 64]      [1, 16, 64, 64]      --                        --              --
тФЬтФАQATConvTranspose2d (upconv5)           [1, 16, 64, 64]      [1, 2, 128, 128]     514                    0.01%              True
============================================================================================================================================
Total params: 4,684,730
Trainable params: 4,684,730
Non-trainable params: 0
Total mult-adds (Units.MEGABYTES): 388.83
============================================================================================================================================
…
